…
2022-12-08 21:17:52.436576: W tensorflow/compiler/xla/stream_executor/platform/default/dso_loader.cc:64] Could not load dynamic library 'libnvinfer_plugin.so.7'; dlerror: libnvinfer_plugin.so.7: cannot open shared object file: No such file or directory; LD_LIBRARY_PATH: /jet/home/jshah2/.conda/envs/gpu/lib/python3.10/site-packages/cv2/../../lib64:/jet/packages/spack/opt/spack/linux-centos8-zen/gcc-8.3.1/cuda-10.2.89-kz7u4ix6ed53nioz4ycqin3kujcim3bs/lib64
2022-12-08 21:17:52.436598: W tensorflow/compiler/tf2tensorrt/utils/py_utils.cc:38] TF-TRT Warning: Cannot dlopen some TensorRT libraries. If you would like to use Nvidia GPU with TensorRT, please make sure the missing libraries mentioned above are installed properly.
ORIGINAL UN-PRUNED MODEL: 

 VDSR(
  (conv1): Sequential(
    (0): Conv2d(1, 64, kernel_size=(3, 3), stride=(1, 1), padding=(1, 1), bias=False)
    (1): ReLU(inplace=True)
  )
  (trunk): Sequential(
    (0): ConvReLU(
      (conv): Conv2d(64, 64, kernel_size=(3, 3), stride=(1, 1), padding=(1, 1), bias=False)
      (relu): ReLU(inplace=True)
    )
    (1): ConvReLU(
      (conv): Conv2d(64, 64, kernel_size=(3, 3), stride=(1, 1), padding=(1, 1), bias=False)
      (relu): ReLU(inplace=True)
    )
    (2): ConvReLU(
      (conv): Conv2d(64, 64, kernel_size=(3, 3), stride=(1, 1), padding=(1, 1), bias=False)
      (relu): ReLU(inplace=True)
    )
    (3): ConvReLU(
      (conv): Conv2d(64, 64, kernel_size=(3, 3), stride=(1, 1), padding=(1, 1), bias=False)
      (relu): ReLU(inplace=True)
    )
    (4): ConvReLU(
      (conv): Conv2d(64, 64, kernel_size=(3, 3), stride=(1, 1), padding=(1, 1), bias=False)
      (relu): ReLU(inplace=True)
    )
    (5): ConvReLU(
      (conv): Conv2d(64, 64, kernel_size=(3, 3), stride=(1, 1), padding=(1, 1), bias=False)
      (relu): ReLU(inplace=True)
    )
    (6): ConvReLU(
      (conv): Conv2d(64, 64, kernel_size=(3, 3), stride=(1, 1), padding=(1, 1), bias=False)
      (relu): ReLU(inplace=True)
    )
    (7): ConvReLU(
      (conv): Conv2d(64, 64, kernel_size=(3, 3), stride=(1, 1), padding=(1, 1), bias=False)
      (relu): ReLU(inplace=True)
    )
    (8): ConvReLU(
      (conv): Conv2d(64, 64, kernel_size=(3, 3), stride=(1, 1), padding=(1, 1), bias=False)
      (relu): ReLU(inplace=True)
    )
    (9): ConvReLU(
      (conv): Conv2d(64, 64, kernel_size=(3, 3), stride=(1, 1), padding=(1, 1), bias=False)
      (relu): ReLU(inplace=True)
    )
    (10): ConvReLU(
      (conv): Conv2d(64, 64, kernel_size=(3, 3), stride=(1, 1), padding=(1, 1), bias=False)
      (relu): ReLU(inplace=True)
    )
    (11): ConvReLU(
      (conv): Conv2d(64, 64, kernel_size=(3, 3), stride=(1, 1), padding=(1, 1), bias=False)
      (relu): ReLU(inplace=True)
    )
    (12): ConvReLU(
      (conv): Conv2d(64, 64, kernel_size=(3, 3), stride=(1, 1), padding=(1, 1), bias=False)
      (relu): ReLU(inplace=True)
    )
    (13): ConvReLU(
      (conv): Conv2d(64, 64, kernel_size=(3, 3), stride=(1, 1), padding=(1, 1), bias=False)
      (relu): ReLU(inplace=True)
    )
    (14): ConvReLU(
      (conv): Conv2d(64, 64, kernel_size=(3, 3), stride=(1, 1), padding=(1, 1), bias=False)
      (relu): ReLU(inplace=True)
    )
    (15): ConvReLU(
      (conv): Conv2d(64, 64, kernel_size=(3, 3), stride=(1, 1), padding=(1, 1), bias=False)
      (relu): ReLU(inplace=True)
    )
    (16): ConvReLU(
      (conv): Conv2d(64, 64, kernel_size=(3, 3), stride=(1, 1), padding=(1, 1), bias=False)
      (relu): ReLU(inplace=True)
    )
    (17): ConvReLU(
      (conv): Conv2d(64, 64, kernel_size=(3, 3), stride=(1, 1), padding=(1, 1), bias=False)
      (relu): ReLU(inplace=True)
    )
  )
  (conv2): Conv2d(64, 1, kernel_size=(3, 3), stride=(1, 1), padding=(1, 1), bias=False)
) 


Epoch: [1][   0/7701]	Time  2.899 ( 2.899)	Data  0.055 ( 0.055)	Loss 55.385597 (55.385597)	PSNR 26.86 (26.86)
Epoch: [1][ 200/7701]	Time  0.011 ( 0.025)	Data  0.000 ( 0.000)	Loss 116.025696 (75.914722)	PSNR 23.65 (25.87)
Epoch: [1][ 400/7701]	Time  0.011 ( 0.018)	Data  0.000 ( 0.000)	Loss 57.329494 (80.213740)	PSNR 26.71 (25.68)
…
[2022-12-08 21:31:18] [32mreplace module (name: trunk.15.relu, op_type: ReLU)[0m
[2022-12-08 21:31:18] [32mreplace module (name: trunk.16.conv, op_type: Conv2d)[0m
[2022-12-08 21:31:18] [32mreplace module (name: trunk.16.relu, op_type: ReLU)[0m
[2022-12-08 21:31:18] [32mreplace module (name: trunk.17.conv, op_type: Conv2d)[0m
[2022-12-08 21:31:18] [32mreplace module (name: trunk.17.relu, op_type: ReLU)[0m
[2022-12-08 21:31:18] [32mreplace module (name: conv2, op_type: Conv2d)[0m
[2022-12-08 21:31:18] [32mspeedup done[0m
PRUNED MODEL WITH L1 NormPruner: 

VDSR(
  (conv1): Sequential(
    (0): Conv2d(1, 39, kernel_size=(3, 3), stride=(1, 1), padding=(1, 1), bias=False)
    (1): ReLU(inplace=True)
  )
  (trunk): Sequential(
    (0): ConvReLU(
      (conv): Conv2d(39, 39, kernel_size=(3, 3), stride=(1, 1), padding=(1, 1), bias=False)
      (relu): ReLU(inplace=True)
    )
    (1): ConvReLU(
      (conv): Conv2d(39, 39, kernel_size=(3, 3), stride=(1, 1), padding=(1, 1), bias=False)
      (relu): ReLU(inplace=True)
    )
    (2): ConvReLU(
      (conv): Conv2d(39, 39, kernel_size=(3, 3), stride=(1, 1), padding=(1, 1), bias=False)
      (relu): ReLU(inplace=True)
    )
    (3): ConvReLU(
      (conv): Conv2d(39, 39, kernel_size=(3, 3), stride=(1, 1), padding=(1, 1), bias=False)
      (relu): ReLU(inplace=True)
    )
    (4): ConvReLU(
      (conv): Conv2d(39, 39, kernel_size=(3, 3), stride=(1, 1), padding=(1, 1), bias=False)
      (relu): ReLU(inplace=True)
    )
    (5): ConvReLU(
      (conv): Conv2d(39, 39, kernel_size=(3, 3), stride=(1, 1), padding=(1, 1), bias=False)
      (relu): ReLU(inplace=True)
    )
    (6): ConvReLU(
      (conv): Conv2d(39, 39, kernel_size=(3, 3), stride=(1, 1), padding=(1, 1), bias=False)
      (relu): ReLU(inplace=True)
    )
    (7): ConvReLU(
      (conv): Conv2d(39, 39, kernel_size=(3, 3), stride=(1, 1), padding=(1, 1), bias=False)
      (relu): ReLU(inplace=True)
    )
    (8): ConvReLU(
      (conv): Conv2d(39, 39, kernel_size=(3, 3), stride=(1, 1), padding=(1, 1), bias=False)
      (relu): ReLU(inplace=True)
    )
    (9): ConvReLU(
      (conv): Conv2d(39, 39, kernel_size=(3, 3), stride=(1, 1), padding=(1, 1), bias=False)
      (relu): ReLU(inplace=True)
    )
    (10): ConvReLU(
      (conv): Conv2d(39, 39, kernel_size=(3, 3), stride=(1, 1), padding=(1, 1), bias=False)
      (relu): ReLU(inplace=True)
    )
    (11): ConvReLU(
      (conv): Conv2d(39, 39, kernel_size=(3, 3), stride=(1, 1), padding=(1, 1), bias=False)
      (relu): ReLU(inplace=True)
    )
    (12): ConvReLU(
      (conv): Conv2d(39, 39, kernel_size=(3, 3), stride=(1, 1), padding=(1, 1), bias=False)
      (relu): ReLU(inplace=True)
    )
    (13): ConvReLU(
      (conv): Conv2d(39, 39, kernel_size=(3, 3), stride=(1, 1), padding=(1, 1), bias=False)
      (relu): ReLU(inplace=True)
    )
    (14): ConvReLU(
      (conv): Conv2d(39, 39, kernel_size=(3, 3), stride=(1, 1), padding=(1, 1), bias=False)
      (relu): ReLU(inplace=True)
    )
    (15): ConvReLU(
      (conv): Conv2d(39, 39, kernel_size=(3, 3), stride=(1, 1), padding=(1, 1), bias=False)
      (relu): ReLU(inplace=True)
    )
    (16): ConvReLU(
      (conv): Conv2d(39, 39, kernel_size=(3, 3), stride=(1, 1), padding=(1, 1), bias=False)
      (relu): ReLU(inplace=True)
    )
    (17): ConvReLU(
      (conv): Conv2d(39, 39, kernel_size=(3, 3), stride=(1, 1), padding=(1, 1), bias=False)
      (relu): ReLU(inplace=True)
    )
  )
  (conv2): Conv2d(39, 1, kernel_size=(3, 3), stride=(1, 1), padding=(1, 1), bias=False)
)


Epoch: [1][   0/7701]	Time  0.083 ( 0.083)	Data  0.048 ( 0.048)	Loss 78.232506 (78.232506)	PSNR 25.36 (25.36)
Epoch: [1][ 200/7701]	Time  0.009 ( 0.009)	Data  0.000 ( 0.000)	Loss 198.316208 (116.290048)	PSNR 21.32 (23.90)
Epoch: [1][ 400/7701]	Time  0.009 ( 0.009)	Data  0.000 ( 0.000)	Loss 94.632416 (118.493953)	PSNR 24.54 (23.87)
…
